model.pth (torch_old, 305476 bytes, 144 tensors)

embeds.0 f4 [8, 32, 32]
0	0x3deb8676	0.11500256
1	0x3d48c3a8	0.049014717
2	0xbe548d03	-0.20756917
3	0xbf1eeb09	-0.62077385
4	0xbe8fbb92	-0.28072792
5	0xbe89fb97	-0.2694976
6	0xbeb71cad	-0.35764065
7	0xbea2d5d8	-0.31803775
8	0xbe9c95e2	-0.30583102
9	0xbeb73102	-0.35779577
10	0xbe9bce02	-0.3043061
11	0xbe2ef07d	-0.17083926
12	0xbea62d43	-0.32456407
13	0xbee1b3be	-0.44082445
14	0xbe2c947b	-0.16853516
15	0xbe012b92	-0.12614277
16	0xbe37d938	-0.17953956
17	0xbd885732	-0.06657256
18	0x3dcd450d	0.10022936
19	0x3e485d58	0.19566858
20	0x3f0c8b97	0.549005
21	0x3f239282	0.6389543
22	0x3ef0a9f3	0.4700466
23	0x3e90b11a	0.28260118
24	0x3e82c4c9	0.2554076
25	0xbdebc1a8	-0.115115464
26	0xbda36a76	-0.0797929
27	0xbdc85136	-0.09781115
28	0xbceaa090	-0.028641015
29	0xbdd4c716	-0.10389535
30	0xbe834a26	-0.25642508
31	0xbe4b52f5	-0.19855864
32	0x3ed8ae2e	0.4232039
33	0x3ea5340a	0.32266265
34	0xbd6207f3	-0.055183362
35	0xbe86d1bb	-0.26331887
36	0xbe35bd06	-0.17747888
37	0xbe3050cc	-0.17218322
38	0xbe58bdbd	-0.2116613
39	0xbe33bd73	-0.17552738
40	0xbe0505e5	-0.1299053
41	0xbe8040d2	-0.25049454
42	0xbe3845de	-0.17995402
43	0xbe966074	-0.29370463
44	0xbea7bd45	-0.3276159
45	0xbe517065	-0.20453031
46	0xbe687a45	-0.22702892
47	0xbe59f572	-0.21285036
48	0x3e1aaf28	0.1510588
49	0x3f1157e6	0.5677475
50	0x3e24db04	0.16099173
51	0x3f157db0	0.5839491
52	0x3edf7016	0.43640202
53	0x3df1bae6	0.11803226
54	0x3e04fd7e	0.12987325
55	0x3dbe9b4e	0.09306966
56	0x3cf73115	0.030174771
57	0xbd9fea75	-0.07808391
58	0xbddd0812	-0.10792555
59	0xbe451b15	-0.19248612
60	0xbe75df1b	-0.24010889
61	0xbe6598ed	-0.22421618
62	0xbea18ca5	-0.31552616
63	0xbe8cdc23	-0.275117
64	0x3f08681f	0.53283876
65	0x3ecfcc18	0.405854
66	0x3e62c190	0.2214415
67	0xbe114df1	-0.14189889
68	0xbe5d95a0	-0.21639109
69	0xbdad140e	-0.08451091
70	0xbe12ff39	-0.14355172
71	0xbe74cd0e	-0.23906347
72	0xbe5f3a65	-0.2179962
73	0xbd4345e2	-0.047674067
74	0xbe7ed9f6	-0.24887833
75	0xbe8ad2a6	-0.27113837
76	0xbe90dcad	-0.28293362
77	0xbe9e326d	-0.30897847
78	0x3d668ecb	0.05628852
79	0x3e945178	0.28968406
80	0x3e36d3a3	0.1785417
81	0xbea683f7	-0.32522556
82	0xbd91aaea	-0.071126774
83	0x3f08b1a3	0.5339605
84	0xbe0c2c0c	-0.13688678
85	0xbde3f71a	-0.11131115
86	0x3e188d18	0.14897573
87	0xbd1578e4	-0.036492243
88	0xbe205eae	-0.15661117
89	0xbed245f0	-0.41068983
90	0xbeb33572	-0.35001713
91	0xbe969980	-0.29413986
92	0xbec266cf	-0.37969062
93	0xbe694220	-0.22779131
94	0xbe59c02b	-0.21264713
95	0xbd6d6fea	-0.057968058
96	0x3de7a6b5	0.11311094
97	0x3ec8c722	0.39214426
98	0x3ef38bc0	0.47567558
99	0x3e6fe2a5	0.23426302
100	0x3c2c5dcc	0.01052041
101	0x3d0963c2	0.033542402
102	0x3ddec2d3	0.108770035
103	0x3d61d030	0.055130184
104	0x3bbdad9b	0.0057885177
105	0xbea95451	-0.3307214
106	0xbe7d806e	-0.24756023
107	0xbecd7b2d	-0.40133038
108	0xbf11a246	-0.56888235
109	0x3d2fc07e	0.042908184
110	0x3e54b015	0.20770295
111	0xbea03c41	-0.3129597
112	0xbf09125a	-0.5354363
113	0xbeaa8a1b	-0.3330849
114	0x3f5513aa	0.8323313
115	0xbc9915bd	-0.018687123
116	0xbbc2ceb0	-0.005945049
117	0xbd7f4113	-0.06231792
118	0xbe6d4722	-0.23171666
119	0xbe5de55b	-0.21669523
120	0xbeaf76ee	-0.34270424
121	0xbe6f9190	-0.23395371
122	0xbe82a66b	-0.25517592
123	0xbe77ded0	-0.2420609
124	0xbbbcf2c2	-0.0057662437
125	0x3d006f2a	0.031356014
126	0x3b74de5e	0.0037363986
127	0xbcda4ec6	-0.02664889
128	0xbe91ad5a	-0.2845257
129	0x3e03fff8	0.12890613
130	0x3efd857a	0.49515897
131	0x3ed00bb2	0.40633923
132	0x3ec6d853	0.38836917
133	0x3e958a4f	0.29207084
134	0x3e6bd732	0.23031309
135	0x3e472cca	0.1945068
136	0x3e3716c6	0.17879781
137	0xbe0881d5	-0.13330777
138	0x3db5970a	0.08866699
139	0x3eae6175	0.3405873
140	0x3d98a5ae	0.07453476
141	0xbe9baf22	-0.30407053
142	0xbf2da9a6	-0.6783699
143	0xbe78fbda	-0.24314824
144	0x3eb71db0	0.35764837
145	0x3f008882	0.50208294
146	0x3f1e5ca6	0.6186012
147	0xbed1512e	-0.40882248
148	0xbf872ffd	-1.056152
149	0xbf837ce7	-1.0272492
150	0xbefae245	-0.49000755
151	0xbea6c91e	-0.32575315
152	0xbe407019	-0.18792762
153	0xbdbe60f9	-0.0929584
154	0xbdcf8b16	-0.101339504
155	0xbcc24a6d	-0.02371713
156	0x3d75b29e	0.059984796
157	0xbd02e558	-0.031957
158	0x3d11bf86	0.03558304
159	0x3d02df4b	0.03195123
160	0xbeb979b4	-0.36225665
161	0xbe1d0326	-0.15333232
162	0x3a08a030	0.0005211858
163	0xbceaeb70	-0.028676718
164	0xbdb45281	-0.08804799
165	0x3e9795e5	0.29606548
166	0x3f249c26	0.64300764
167	0x3f5d8738	0.8653445
168	0x3f1e20be	0.6176871
169	0x3f12e0b6	0.5737413
170	0x3e574105	0.21020897
171	0x3ee3acab	0.44467673
172	0xbe0c74a8	-0.13716376
173	0xbf064b8b	-0.5245902
174	0x3fbf687b	1.495376
175	0x3fd94616	1.6974514
176	0x3fd5f333	1.6714844
177	0x3f01349e	0.5047091
178	0x3f211742	0.62926114
179	0x3db4169a	0.087933734
180	0x3d8f1781	0.06986905
181	0x3f516398	0.81792593
182	0xbeda81d2	-0.4267717
183	0xbdedc546	-0.116098925
184	0xbdc5aaf9	-0.09651751
185	0x3cb20c9e	0.021734532
186	0x3ba728bd	0.005101292
187	0xbbbdc110	-0.005790837
188	0xb8b32376	-8.54199e-05
189	0x3ba33f6a	0.004981925
190	0x3a45daaf	0.000754754
191	0x3db05875	0.08610622
192	0xbe3a38da	-0.1818575
193	0xbe1f27e8	-0.15542567
194	0xbdd62903	-0.10457041
195	0x3e29bcd1	0.16575934
196	0x3e854b45	0.2603399
197	0x3f3f856a	0.7481295
198	0x3f450ade	0.76969707
199	0x3fbbe390	1.4678822
200	0x3f3bf8d3	0.7342655
201	0x3eeb2d06	0.45932788
202	0xbeeddc7e	-0.46457285
203	0x3da05c9c	0.07830164
204	0xbbb12168	-0.0054055937
205	0x3e427c88	0.18992817
206	0x4016dc1e	2.357185
207	0x3f97a996	1.1848629
208	0x3e979557	0.29606125
209	0x3e47a518	0.19496572
210	0x3dbe76ab	0.09299978
211	0xbe5e27e8	-0.2169491
212	0xbd13e48d	-0.036106635
213	0x3eae3f03	0.3403245
214	0x3d808887	0.062760405
215	0xbd2b1ea6	-0.041777276
216	0xbca18ba7	-0.019719912
217	0xbbff59e5	-0.0077926987
218	0x3d5604d2	0.05225069
219	0x3d7322b5	0.05935927
220	0x3d018552	0.031621285
221	0xbd32ab52	-0.043620415
222	0xbd01271e	-0.031531446
223	0x3c578825	0.013155018
224	0xbe43ae7b	-0.19109528
225	0xbdeeb29d	-0.116551615
226	0xbd8eae88	-0.06966883
227	0x3dabb7f8	0.08384699
228	0x3e9530ea	0.2913888
229	0x3f83b683	1.0290073
230	0x3fae969c	1.3639712
231	0x402f6882	2.7407537
232	0x3fbeb5fd	1.4899288
233	0x3f7e92a5	0.9944251
234	0xbe1077e5	-0.14108236
235	0x3d3bf77c	0.045890316
236	0x3f3dc542	0.74129117
237	0xbe0f10d8	-0.13971269
238	0x3f0d86d5	0.5528386
239	0x3e5a38ba	0.21310702
240	0x3c814b9b	0.015783122
241	0xbdb537b8	-0.08848518
242	0xbe832b95	-0.25619188
243	0xbe64052e	-0.22267601
244	0xbe2e883f	-0.17044161
245	0xbee9b128	-0.45642972
246	0xbb59134d	-0.0033123076
247	0x3d6409ab	0.055673283
248	0x3d89b6eb	0.06724342
249	0xbcd49d52	-0.025953922
250	0x3cd0538d	0.025430465
251	0xbcce1a32	-0.025158975
252	0x3cd667ce	0.026172545
253	0xbceca302	-0.028886322
254	0x3cfe969e	0.03107768
255	0x3b3e6a38	0.002905501

embeds.1 f4 [8, 32, 32]
0	0x3d3b3b65	0.04571094
1	0x3eb85bd1	0.3600755
2	0xbe977817	-0.2958381
3	0xbec64e5e	-0.38731664
4	0xbe12f880	-0.14352608
5	0x3e883b40	0.26607704
6	0x3d205a8e	0.03914886
7	0x3edf60ca	0.43628532
8	0x3f0ee446	0.5581707
9	0xbe93bf5e	-0.2885694
10	0x3ea06604	0.31327832
11	0x402322d8	2.5490017
12	0x3e0713f6	0.13191208
13	0x3d36172a	0.044455685
14	0x3d1464b2	0.036228843
15	0xbcb3a4cb	-0.021929165
16	0xbf95440e	-1.1661394
17	0x3f3f82a2	0.74808705
18	0x3e444e18	0.19170415
19	0xbcadbed5	-0.02120916
20	0xbd811847	-0.06303459
21	0xbd4f5a70	-0.050623357
22	0xbbe0999a	-0.0068542482
23	0xbd11575d	-0.035483707
24	0x3d19a590	0.03751141
25	0xbc728772	-0.0148028005
26	0xbcb7b1a6	-0.022423577
27	0x3cc75122	0.02433068
28	0x3c428453	0.011872369
29	0x3d23bb08	0.03997329
30	0xbd991af0	-0.07475841
31	0x3d2f0a96	0.042734705
32	0x3d423236	0.047411166
33	0x3ef589d2	0.4795671
34	0xbe11055b	-0.14162199
35	0xbe0a2a2f	-0.13492654
36	0xbe4a4fa4	-0.19756943
37	0x3e248ce6	0.16069373
38	0xbd01f4b5	-0.03172751
39	0x3eeeb5b2	0.46622998
40	0x3eccf545	0.40030876
41	0xbe3caa2e	-0.18424293
42	0x3ecb27f5	0.39678922
43	0x3ecc9e0a	0.39964324
44	0x3e519ae5	0.20469244
45	0xbeb9c6c2	-0.36284453
46	0x3de7f96e	0.11326872
47	0x3e822cbb	0.25424752
48	0xbee23815	-0.44183412
49	0x3d2d149a	0.042255975
50	0xbe56959d	-0.2095551
51	0x3e2b8b8a	0.16752449
52	0x3d48b625	0.04900183
53	0x3d1abee8	0.03777972
54	0xbd9c0ba5	-0.076194085
55	0xbd82b4e4	-0.063821584
56	0xba5ea77d	-0.00084935856
57	0xbc8c1d2f	-0.01710376
58	0x3b615dea	0.0034388253
59	0xbc472641	-0.012155117
60	0x3c6299be	0.0138306
61	0x3d3cfc49	0.046139035
62	0x3beceaeb	0.007230153
63	0xbc41720d	-0.011806977
64	0xbdec0c0e	-0.11525737
65	0x3e25f3b6	0.1620625
66	0x3f124acb	0.57145375
67	0xbe0117e8	-0.12606776
68	0xbe05113f	-0.1299486
69	0xbd8172b2	-0.063207045
70	0xbe7c9b3d	-0.24668594
71	0x3f198c4a	0.5997969
72	0x3e9c65e8	0.30546498
73	0xbd9c84ce	-0.07642518
74	0x3ec41b96	0.38302296
75	0x3cb04923	0.02151925
76	0xbddd6c25	-0.108116426
77	0xbe8f034a	-0.27932197
78	0x3e9e1926	0.30878562
79	0x3e21c0a3	0.15796141
80	0xbec10a66	-0.37703246
81	0x3da1cf1c	0.07900831
82	0x3d8bb69e	0.06821941
83	0x3e7c7396	0.24653468
84	0xbc11f287	-0.008907921
85	0x3b86f750	0.0041188374
86	0xbceabce2	-0.02865452
87	0xbd162086	-0.03665211
88	0x3c52e1e2	0.0128712375
89	0x3d2f20c2	0.04275585
90	0x3cc3a423	0.023881977
91	0x3b78d4c3	0.0037968613
92	0xbde94f33	-0.11392059
93	0x3d652d9a	0.055951692
94	0x3cfc17e8	0.030773118
95	0xbd2bac12	-0.041912146
96	0x3ddc6b3d	0.107626416
97	0xbca23fb5	-0.019805769
98	0x3eb7d53b	0.3590487
99	0xbf0dfa96	-0.5546049
100	0xbe0ab8a6	-0.13547
101	0xbdd9b678	-0.10630506
102	0xbee9aa5a	-0.4563778
103	0x3f3b213a	0.73097575
104	0x3ea57b39	0.32320574
105	0xbdee43de	-0.116340384
106	0x3ebced2a	0.36899692
107	0x3e916d08	0.28403497
108	0xbe89671b	-0.26836476
109	0x3e02591e	0.12729308
110	0x3f57f0a5	0.8435157
111	0xbf0013b3	-0.5003006
112	0xbdc6d496	-0.09708516
113	0x3edddb8a	0.43331558
114	0xbc503818	-0.012708686
115	0xbc870ee8	-0.0164866
116	0x3d459216	0.04823502
117	0xbc005f66	-0.007835245
118	0x3c9d7b34	0.019223787
119	0xbcd4caaa	-0.025975544
120	0x3d9b2680	0.07575703
121	0xbd0fa0a0	-0.035065293
122	0x3b5c694b	0.0033632095
123	0x3d5dac9d	0.054119695
124	0x3cf35aca	0.029706378
125	0xbd9e7e82	-0.07738973
126	0xbceaaeba	-0.02864777
127	0x3cd8f076	0.026481848
128	0x3ae9aab6	0.0017827365
129	0xbe0202ce	-0.12696382
130	0x3e1ccc6e	0.15312359
131	0x3e524fb0	0.20538211
132	0x3e645436	0.22297749
133	0xbed900de	-0.42383474
134	0xbf44b59a	-0.768396
135	0x3f395604	0.72396874
136	0x3e88aea2	0.26695734
137	0xbe0cf1a1	-0.13764049
138	0x3f3c7b9b	0.73626107
139	0x3ee83ec3	0.45360383
140	0xbf380c85	-0.71894103
141	0xbbaafbc3	-0.0052180006
142	0x3e8cd7e5	0.27508464
143	0xbe0458ab	-0.12924449
144	0xbbcaeb35	-0.0061925896
145	0x3d1a7fdf	0.037719604
146	0xbf4bf396	-0.7966856
147	0x3d0dbbef	0.034603056
148	0xbd4e7ecd	-0.050413895
149	0xbd4073a0	-0.04698527
150	0xbdabb660	-0.08384395
151	0xbce2115a	-0.027596164
152	0x3d8f1c1e	0.06987785
153	0x3b862fba	0.004095045
154	0x3d5df9a3	0.05419315
155	0x3d059a5a	0.032617904
156	0xbd114316	-0.03546437
157	0x3d223fbc	0.039611563
158	0xbd10c6d2	-0.03534586
159	0x3ae7e78d	0.0017692909
160	0xbd8239de	-0.063586935
161	0xbe39dcf2	-0.1815069
162	0xbea37810	-0.31927538
163	0xbf103776	-0.56334627
164	0xbf387f7d	-0.7206953
165	0xbf6e3138	-0.9304385
166	0xbfa75bb8	-1.3074865
167	0x3f92306d	1.1421028
168	0x3ef0f4bd	0.4706172
169	0xbe8939e3	-0.26801977
170	0x3ecc2823	0.39874372
171	0xbe568b46	-0.20951566
172	0xbf4f315b	-0.80934685
173	0x3e2ab7e7	0.16671716
174	0x3ef5f342	0.48037153
175	0xbd6bb918	-0.057549566
176	0xbf5ed3b3	-0.8704178
177	0xbd017500	-0.03160572
178	0xbc731132	-0.014835643
179	0x3bd82123	0.006595747
180	0xbc53327a	-0.0128904525
181	0xbd1f5c32	-0.038906284
182	0xbdaeb638	-0.08530849
183	0x3cf9ccf2	0.030493233
184	0x3d17494e	0.036935143
185	0xbda8715d	-0.08224747
186	0xbcaa7a4d	-0.02081027
187	0xbc30ca8e	-0.01079048
188	0x3c864f78	0.016395316
189	0xbc4eb26e	-0.012615783
190	0xbdcd4e02	-0.100246444
191	0x3cb3782f	0.021907894
192	0xbee97110	-0.45594072
193	0xbf25c243	-0.64749545
194	0xbf272559	-0.65291363
195	0xbf140936	-0.57826555
196	0xbf116e3a	-0.5680882
197	0xbf1658c2	-0.58729184
198	0xbf71d622	-0.94467366
199	0x3eab6b9a	0.3348053
200	0x3e593a4a	0.21213642
201	0xbe31fb3d	-0.17380996
202	0x3f04b735	0.5184205
203	0xbd9c6ea3	-0.0763829
204	0xbfaab0d3	-1.3335212
205	0xbf15582e	-0.58337677
206	0x3f5833aa	0.84453833
207	0xbef48765	-0.47759548
208	0xbe60dabe	-0.21958444
209	0xbd8a7be1	-0.06761909
210	0x3a3132c6	0.000675958
211	0x3d1f54dc	0.038899288
212	0x3c9c9c94	0.019117631
213	0x3d3c463b	0.045965414
214	0x3d9a08af	0.075211875
215	0xba9e50c3	-0.0012078512
216	0xbd839486	-0.06424813
217	0x3c9ac941	0.018894793
218	0x3b3ccefe	0.00288099
219	0xbd16b323	-0.03679193
220	0x3d35cbaa	0.044383682
221	0x3cb6fb10	0.022336513
222	0xbb9c371f	-0.004767313
223	0x3d1c8421	0.038211945
224	0xbef0e116	-0.47046727
225	0xbecd1ee0	-0.40062618
226	0xbe8a0fab	-0.2696508
227	0xbe0cf4b3	-0.1376522
228	0xbde64ca6	-0.11245088
229	0x3ef0a87e	0.4700355
230	0xbf47f5cf	-0.7810945
231	0x3f1c1f30	0.6098509
232	0x3e831078	0.25598502
233	0xbf2b642c	-0.66949725
234	0x3e9379fe	0.2880401
235	0xbe616702	-0.2201195
236	0xbe55975a	-0.20858517
237	0x3c53ad72	0.012919771
238	0x3dfb6cb0	0.1227659
239	0xbf1bafd1	-0.6081515
240	0xbd6e5f00	-0.058196068
241	0xbd994e53	-0.07485642
242	0xbd51b5a8	-0.05119863
243	0xbcb4edd8	-0.022086069
244	0xba98fdad	-0.0011672281
245	0xbad7b366	-0.0016456663
246	0xbcfe1dba	-0.031020034
247	0x3b9dd752	0.004816928
248	0x3d393a94	0.04522188
249	0xbd789058	-0.060684532
250	0x3d2e8c71	0.042614404
251	0x3d62a60b	0.055334132
252	0xbca9c285	-0.020722637
253	0xbdbee959	-0.09321851
254	0xbd5cdffb	-0.053924542
255	0x3d1d781d	0.038444627

embeds.2 f4 [8, 32, 32]
0	0x3e59cacd	0.21268769
1	0x3e1cbfda	0.1530756
2	0xbd1ec726	-0.03876414
3	0xbd22c20a	-0.03973583
4	0x3dc4d3ca	0.09610708
5	0x3e875878	0.26434684
6	0x3e3de3d7	0.18543945
7	0xbe4cd6e6	-0.20003852
8	0xbeb6cf2d	-0.35704938
9	0xbe636cab	-0.22209422
10	0x3e80b163	0.25135335
11	0x3ed1bf2d	0.40966168
12	0x3d531be8	0.051540285
13	0xbeed8286	-0.46388644
14	0xbef68e83	-0.48155603
15	0x3c9159bb	0.017742982
16	0x3d6f02a2	0.05835212
17	0xbe639038	-0.22222984
18	0xbee320b6	-0.44360894
19	0xbe9fb3a9	-0.31191757
20	0xbe987cd3	-0.29782733
21	0x3de1a6cd	0.11018143
22	0x3f6ba3cb	0.92046803
23	0x3f1dbe90	0.616189
24	0x3f138576	0.5762552
25	0x3f2a6998	0.66567373
26	0x3f1ec23e	0.6201514
27	0x3eba5a12	0.36396843
28	0x3e16fa51	0.14743926
29	0x3d73f3a2	0.05955852
30	0xbbe821ca	-0.007084106
31	0xbe10b366	-0.14130935
32	0x3e8e0562	0.27738482
33	0x3e1938ce	0.14963076
34	0xbe018e6a	-0.12651983
35	0x3d9735e2	0.07383324
36	0x3e7afead	0.24511214
37	0xbcdc537b	-0.026895275
38	0x3e502deb	0.20330016
39	0x3e15088b	0.1455404
40	0xbc615cee	-0.013755066
41	0xbe864abe	-0.262289
42	0x3e589156	0.21149191
43	0x3f10395d	0.5633753
44	0x3f0a9d74	0.54146504
45	0xbef891de	-0.48548788
46	0xbf17472a	-0.5909296
47	0xbf142eb0	-0.5788374
48	0xbd586895	-0.052834112
49	0xbe69a000	-0.22814941
50	0xbeed9570	-0.46403074
51	0xbe5dbe8e	-0.21654722
52	0xbed0b44d	-0.4076256
53	0xbde5185e	-0.11186288
54	0x3efd048d	0.49417534
55	0x3dd0c386	0.10193543
56	0x3e93d561	0.28873733
57	0x3e9d3a1a	0.3070839
58	0x3ed34bbb	0.41268715
59	0x3f20eac2	0.6285821
60	0x3f23e0c5	0.64014846
61	0x3e63c8b8	0.22244537
62	0x3db9f0c2	0.09079124
63	0xbda29641	-0.07938815
64	0x3d902815	0.07038895
65	0xbe0c1833	-0.13681106
66	0xbd2d887a	-0.042366482
67	0x3e893a16	0.2680213
68	0x3ea1380a	0.31488067
69	0x3d64b650	0.05583793
70	0xbd502ffa	-0.050827004
71	0xbee1ea53	-0.44124088
72	0x3ebcb6dd	0.36858264
73	0x3cd49b28	0.02595289
74	0xbd4ac1fa	-0.049501397
75	0xbd2aae30	-0.041670024
76	0x3edb948e	0.42886776
77	0xbdf3d710	-0.11906254
78	0xbeb75026	-0.35803336
79	0xbea17ff7	-0.31542942
80	0x3e38ecd3	0.18059091
81	0xbe9a613f	-0.30152318
82	0xbf861fcb	-1.0478452
83	0xbedad988	-0.42744088
84	0xbed29273	-0.41127357
85	0xbe56b8c3	-0.20968919
86	0x3e3ccf1f	0.18438385
87	0x3e4aee26	0.19817409
88	0xbd64bcce	-0.05584412
89	0xbc0444f0	-0.008073077
90	0x3e028de7	0.12749444
91	0x3e7e9cc2	0.24864486
92	0x3ef3f32d	0.47646466
93	0x3f3d88fa	0.74037135
94	0x3e327bab	0.17429988
95	0x3d797433	0.06090183
96	0x3e959240	0.29213142
97	0x3e84e755	0.25957742
98	0x3e08430e	0.1330683
99	0x3df09983	0.1174803
100	0x3e3b32f5	0.18281157
101	0xbdc0747d	-0.093972184
102	0xbd090302	-0.033450134
103	0xbe8ccbca	-0.2749923
104	0x3eeb7cfe	0.459938
105	0x3f8042c8	1.002038
106	0x3d886e4e	0.06661664
107	0xbcc5c112	-0.024139915
108	0x3dc79348	0.097448885
109	0xbe4b301a	-0.19842568
110	0xbed0a205	-0.4074861
111	0x3e0ae535	0.13563998
112	0x3d02696e	0.031838827
113	0xbe51b50d	-0.20479222
114	0xbf0cb200	-0.54959106
115	0xbe0635ba	-0.13106433
116	0x3dbce46a	0.09223254
117	0xbe229699	-0.15877761
118	0xbc8b4876	-0.017002326
119	0xbe36453a	-0.17799845
120	0xbe5beeee	-0.21477863
121	0xbdafea75	-0.08589641
122	0xbe334255	-0.17505772
123	0x3d5c5c02	0.053798683
124	0x3e5513d6	0.20808348
125	0x3f11339a	0.5671936
126	0x3f07b635	0.530124
127	0xbcf10082	-0.029419187
128	0x3de42fb2	0.1114191
129	0x3e805302	0.2506333
130	0x3eb23335	0.34804693
131	0x3e165405	0.14680488
132	0xbe2a1a62	-0.16611627
133	0xbe009088	-0.12555134
134	0xbd44d9b3	-0.048059177
135	0x3e9d7a66	0.30757445
136	0x3efa7c60	0.48923016
137	0x3f236372	0.63823617
138	0x3e8fd1a6	0.28089637
139	0x3f084c6e	0.5324162
140	0x3eb1aec9	0.34703663
141	0x3e0d6332	0.13807371
142	0x3e950b99	0.2911041
143	0x3e1efdc5	0.15526493
144	0xbe1bd015	-0.15216096
145	0xbfb5edab	-1.4213156
146	0xbfc3d546	-1.5299461
147	0x3eddd73b	0.4332827
148	0xbf922bee	-1.1419656
149	0xbf196f7e	-0.5993575
150	0xbd83905f	-0.06424021
151	0x3e573b15	0.21018632
152	0xbe64a45e	-0.22328326
153	0xbe70fc85	-0.23533829
154	0xbea603ae	-0.32424682
155	0xbe1527c2	-0.14565948
156	0x3d1c1832	0.038109012
157	0x3e7af8c0	0.24508953
158	0x3f35d039	0.7102085
159	0x3e7df2e5	0.24799688
160	0x3f0aa9f8	0.541656
161	0x3f242e69	0.64133316
162	0x3f1488df	0.5802135
163	0x3ed8c270	0.42335844
164	0x3e685a5e	0.22690722
165	0x3eebfff5	0.46093717
166	0xbda78bbf	-0.08180951
167	0xbebb5956	-0.36591595
168	0xbf4ff095	-0.81226474
169	0xbfb38cfd	-1.4027401
170	0x3e7a453a	0.2444047
171	0x3f46720c	0.7751777
172	0x3e1318f5	0.14364989
173	0xbe8f9aaf	-0.28047702
174	0x3f1b1c29	0.60589844
175	0x3f3f6564	0.74764085
176	0x3f99371a	1.1969941
177	0x3ea2b04a	0.31775123
178	0x3ec4feeb	0.38475737
179	0x3eeba4bb	0.46024117
180	0x3ef86430	0.48513937
181	0x3eb9015d	0.36133853
182	0x3ebf13e6	0.3731987
183	0x3f2bce85	0.67112
184	0x3e85b7c2	0.2611676
185	0x3e249f06	0.16076288
186	0xbdb9bfd1	-0.09069789
187	0xbec97ae6	-0.39351577
188	0xbd08c3d6	-0.03338989
189	0x3e206453	0.1566327
190	0x3ee83170	0.45350218
191	0x3f382a73	0.7193977
192	0xbde5dc53	-0.11223664
193	0xbda8ccf8	-0.0824222
194	0xbdf73d96	-0.120722935
195	0xbe179d83	-0.1480618
196	0xbe8eec6b	-0.27914748
197	0x3e204e45	0.15654857
198	0xbda32a03	-0.079669975
199	0xbd0aa0fe	-0.03384494
200	0xbe0a83fd	-0.13526912
201	0xbd1520a2	-0.036408074
202	0xbfbdf2a0	-1.4839668
203	0xbeec1c90	-0.4611554
204	0xbf657f26	-0.8964714
205	0xc01c3975	-2.441007
206	0xbc4fc94b	-0.012682269
207	0x3f1c48ba	0.6104847
208	0x3f30d23f	0.6907081
209	0x3f3bdd5a	0.7338463
210	0x3ebf4d3d	0.37363616
211	0xbeb90562	-0.3613692
212	0xbf10063d	-0.5625952
213	0xbf0967a6	-0.5367378
214	0x3f3c2f22	0.7350942
215	0xbea58cc3	-0.32333955
216	0xbe69dd3a	-0.22838297
217	0x3e8127fa	0.25225812
218	0x3c7af022	0.015316041
219	0xbeadf65a	-0.33977014
220	0xbdc679db	-0.09691211
221	0xbc2b787c	-0.010465737
222	0x3eb186dd	0.34673205
223	0x3f33818b	0.7011954
224	0xbe9cd3d0	-0.3063035
225	0xbf0243b6	-0.5088457
226	0xbf192fe8	-0.59838724
227	0xbf2e1de9	-0.6801439
228	0xbf672ecd	-0.9030579
229	0xbf25df9b	-0.6479432
230	0xbeae0747	-0.33989927
231	0x3e150f77	0.1455668
232	0x3e1ae126	0.1512495
233	0xbdb1d2f2	-0.08682813
234	0xbf0870a4	-0.53296876
235	0x3e8baafa	0.27278882
236	0x3e2e8038	0.17041099
237	0xbf087bbe	-0.53313816
238	0x3e6ac3aa	0.22926202
239	0x3f77b3d8	0.96758795
240	0x3f858252	1.0430396
241	0x3eff67c6	0.4988386
242	0x3f01d656	0.50717676
243	0x3e8b7953	0.27241
244	0xbf3de4a4	-0.74177
245	0x3f95bd3e	1.1698377
246	0x3d411742	0.04714132
247	0xbf2c438e	-0.6729058
248	0xbf769646	-0.9632305
249	0xbd9888ba	-0.074479535
250	0x3ec9d953	0.39423618
251	0xbe4a23ee	-0.19740269
252	0xbe0d5afe	-0.13804242
253	0xbda41b58	-0.08013028
254	0x3ea2493b	0.31696495
255	0x3f2a23ca	0.6646086

embeds.3 f4 [8, 32, 32]
0	0xbd1cf6b7	-0.038321223
1	0xbc89cdf2	-0.016821835
2	0xbd8c9b1e	-0.06865524
3	0xbda533d9	-0.0806653
4	0xbccf496d	-0.025303567
5	0xbe08f7ea	-0.13375822
6	0x3d14027e	0.03613519
7	0xbddd726e	-0.10812841
8	0x3e174a9b	0.14774553
9	0x3f0ac4c5	0.54206496
10	0xbd25c68e	-0.04047256
11	0x3f18aeee	0.5964192
12	0x3f3aa5a5	0.72909003
13	0x3e1c82fd	0.15284343
14	0x3d3299b8	0.04360363
15	0xbccd6eeb	-0.025077304
16	0x3c3add16	0.01140525
17	0xbcb229d3	-0.021748459
18	0xbdb6bdb6	-0.08922903
19	0xbc6c8fa3	-0.014438543
20	0x3e47e5c0	0.19521236
21	0xbeca39ea	-0.3949731
22	0xbdd6e1be	-0.10492276
23	0x3e83af5e	0.25719732
24	0x3f0ddd23	0.5541555
25	0x3ea31f5b	0.3185986
26	0x3e89506a	0.26819164
27	0x3dfd92ad	0.12381492
28	0x3e60d55d	0.21956392
29	0x3e421262	0.18952325
30	0x3e671fcd	0.22570725
31	0x3e120787	0.14260684
32	0xbd8e842b	-0.06958803
33	0x3cecea03	0.02892018
34	0xbce1b39d	-0.027551467
35	0x3c888680	0.016665697
36	0x3d1c8c34	0.038219646
37	0xbd1316aa	-0.035910286
38	0x3e5f7a00	0.21823883
39	0xbf244409	-0.64166313
40	0xbe696303	-0.22791676
41	0xbe46f5b5	-0.19429667
42	0xbeaab97a	-0.33344632
43	0x3da0d85b	0.078537665
44	0x3f1397e6	0.57653654
45	0x3f7729cd	0.9654816
46	0x3f269776	0.6507486
47	0xbd690882	-0.05689288
48	0x3cc75a7b	0.024335137
49	0xbd8dacc2	-0.069177166
50	0xbdb93c1a	-0.090446666
51	0xbdb08402	-0.086189285
52	0x3dfb321a	0.122654155
53	0xbf1da847	-0.61584896
54	0xbe7ffac3	-0.24998002
55	0x3e349898	0.17636335
56	0x3e976a4d	0.2957329
57	0x3eae9100	0.34095
58	0x3eb649fa	0.35603315
59	0x3e7cca75	0.24686606
60	0x3e51332d	0.20429678
61	0x3ec01028	0.37512326
62	0x3e80dd6a	0.25168926
63	0x3e2583ae	0.16163513
64	0xbc3f5d35	-0.011679937
65	0xbcda0fd2	-0.026618872
66	0x3c104808	0.008806236
67	0xbcefffe8	-0.02929683
68	0x3c93ff66	0.01806612
69	0x3bf1e7e3	0.0073823794
70	0x3cd87bc2	0.0264262
71	0xbe27e983	-0.16397671
72	0x3da4522e	0.08023487
73	0xbbec6cb2	-0.007215106
74	0xbd760bf0	-0.06006998
75	0xbea230ce	-0.3167786
76	0xbc992456	-0.018694084
77	0x3f0009aa	0.50014746
78	0x3f816278	1.0108175
79	0x3f945da2	1.1591074
80	0x3d9755a9	0.07389385
81	0x3c6712c6	0.014103597
82	0xbd922df0	-0.07137668
83	0x3dbc4475	0.09192745
84	0x3e87806b	0.26465163
85	0xbec72d72	-0.3890186
86	0xbefbbc75	-0.4916722
87	0x3e9c812b	0.30567297
88	0x3e27efae	0.16400024
89	0x3ddd9685	0.10819725
90	0x3dd574fe	0.10422705
91	0x3e030cba	0.12797824
92	0x3e34a4c8	0.17640984
93	0x3e940b7d	0.28915015
94	0x3e9e7c63	0.30954275
95	0xbe97f1a8	-0.29676557
96	0x3d843753	0.06455865
97	0xbdc61f30	-0.09673917
98	0x3c98ab44	0.018636353
99	0xbbbca355	-0.0057567754
100	0x3cea8b05	0.028630743
101	0x3d56038a	0.05224947
102	0xbbc9f262	-0.0061629275
103	0x3d861598	0.065470874
104	0x3f01681f	0.505495
105	0x3f48c75b	0.7842919
106	0x3dbbff47	0.0917955
107	0x3d4ab0d6	0.04948505
108	0xbe747378	-0.23872173
109	0xbdde6d62	-0.10860707
110	0x3ece5be2	0.40304476
111	0x3f20f03d	0.62866575
112	0x3f744136	0.95412004
113	0xbd003cab	-0.031307857
114	0x3f7417eb	0.95348996
115	0x3e9fe4c3	0.3122922
116	0x3f23d83e	0.64001834
117	0x3db4828a	0.08813961
118	0xbf104416	-0.5635389
119	0x3e6cacfe	0.23112866
120	0x3da17642	0.07883884
121	0x3da43fdb	0.08019992
122	0x3e124445	0.14283855
123	0x3e05ea20	0.13077593
124	0x3e8cd966	0.27509612
125	0x3ef87b12	0.48531395
126	0x3deea1d6	0.116519615
127	0xbea06a62	-0.31331164
128	0x3c172990	0.009226218
129	0xbd68aa5b	-0.05680309
130	0xbcd610da	-0.026131082
131	0xbd838ae3	-0.06422975
132	0xbca77c7b	-0.0204451
133	0x3d0b2dd9	0.03397927
134	0x3d9b7be3	0.07591989
135	0xbd45fafa	-0.048335053
136	0xbc395557	-0.0113118505
137	0x3a814000	0.0009860992
138	0xbff5282a	-1.9152882
139	0xbf7be133	-0.983905
140	0xbea3e28e	-0.32008785
141	0xbe12fc36	-0.14354023
142	0xbe33ea42	-0.17569831
143	0x3e8fab9e	0.2806062
144	0x3f7acfaa	0.9797312
145	0xbf0a1d1d	-0.53950673
146	0xbdbe85b5	-0.09302846
147	0xbf331ef5	-0.6996911
148	0x3e066d16	0.1312755
149	0x3eca3909	0.3949664
150	0xbefe8c03	-0.49716195
151	0x3dc3162a	0.09525712
152	0x3ea99cef	0.33127543
153	0x3ebad1c5	0.36488166
154	0x3eb294e7	0.34879228
155	0x3e5808be	0.21097085
156	0x3e9ff942	0.31244856
157	0x3f02b579	0.51058155
158	0xbdf001d6	-0.117191
159	0x3ac08d4d	0.0014690548
160	0x3d57d852	0.052696534
161	0x3d22f391	0.039783064
162	0xbdb08f15	-0.08621041
163	0x3c0c2a04	0.008554939
164	0x3d8dc10b	0.06921586
165	0x3bd3cc83	0.0064635887
166	0x3c05218b	0.008125673
167	0x3d958369	0.07300455
168	0x3d4d72d3	0.050158333
169	0xbd9e47de	-0.07728551
170	0x3cbbd74c	0.02292981
171	0xbd42b059	-0.04753146
172	0xbf9f94c0	-1.246727
173	0xbf26ab0e	-0.6510476
174	0x3e9341ae	0.28761047
175	0x3c849a6e	0.016186919
176	0xbd999e91	-0.07500947
177	0x3f699bae	0.91253173
178	0xbf825daa	-1.0184834
179	0x3d36be2b	0.044614952
180	0x3ee14610	0.43998766
181	0x3e402992	0.18765858
182	0x3f1017f3	0.56286544
183	0xbdb757dc	-0.08952305
184	0x3dde6e16	0.10860841
185	0x3e243048	0.16034043
186	0x3ea9b23b	0.33143792
187	0x3eb505fd	0.3535613
188	0x3f359e46	0.7094463
189	0x3e50e262	0.20398858
190	0xbd905d84	-0.07049087
191	0x3e68c6cb	0.22732083
192	0xbc8f69e1	-0.017506542
193	0x3ceac34b	0.028657576
194	0xbd4ee7e0	-0.050514102
195	0xbc51d6a2	-0.01280752
196	0xbbdf8253	-0.006820956
197	0x3da4409a	0.08020134
198	0xbd1cb8c3	-0.03826214
199	0xbdcbebdc	-0.09957096
200	0x3c6ae113	0.014335888
201	0xbd41e0dd	-0.047333587
202	0x3ca1da9e	0.019757565
203	0x3ed51dbd	0.4162425
204	0x3f11491d	0.56752187
205	0xbca3da74	-0.020001628
206	0x3fead0b3	1.834494
207	0x3e6fa9ad	0.2340457
208	0x3e0cc87f	0.13748358
209	0xbe0903fe	-0.13380429
210	0x3e31fe42	0.17382148
211	0xbe239a35	-0.15976794
212	0xbe8dc92b	-0.2769254
213	0x3efd5210	0.4947667
214	0x3eb6264b	0.3557609
215	0x3e019f55	0.12658437
216	0x3c3f5842	0.011678757
217	0x3e3b7e05	0.18309791
218	0x3d49bce7	0.049252417
219	0x3c2874a6	0.010281717
220	0x3e13e732	0.14443663
221	0x3db75aca	0.089528635
222	0x3e011b79	0.12608136
223	0x3f016cba	0.5055653
224	0x3d2baa2d	0.04191034
225	0x3d060c54	0.0327266
226	0x3d4faa03	0.050699245
227	0x3daef796	0.08543317
228	0xbd8da7bd	-0.06916759
229	0x3d8590cd	0.06521759
230	0xbca0ebbb	-0.019643655
231	0xbb941ff3	-0.00452041
232	0x3cebb9c5	0.028775105
233	0x3cb6abb3	0.02229867
234	0xbd6022ed	-0.054720808
235	0x3f208a1a	0.62710726
236	0x3eff74d2	0.49893814
237	0xbe1cb1d7	-0.15302216
238	0xbdd0fcfd	-0.10204504
239	0x40435ada	3.0524201
240	0x3fabe613	1.3429588
241	0xbe86dd6f	-0.26340815
242	0xbc2788ca	-0.010225484
243	0xbd608f35	-0.054824073
244	0xbe460e06	-0.19341287
245	0xbc3f5327	-0.01167754
246	0xbe31f2f1	-0.17377831
247	0xbf062748	-0.5240369
248	0xbd3e2f01	-0.046431545
249	0xbd6fefa8	-0.058578163
250	0xbdf0fffd	-0.11767576
251	0xbd4f2365	-0.050570864
252	0xbce31b66	-0.027723026
253	0x3dc32402	0.09528352
254	0x3df09bc6	0.117484614
255	0x3e9b7b10	0.30367327

decoders.0.0.weight f4 [32, 10]
0	0x3e2a8118	0.16650808
1	0xbf806506	-1.003083
2	0xbe81edc2	-0.25376707
3	0x3f02b986	0.51064336
4	0x3e7b9858	0.24569833
5	0xbf87f3c9	-1.0621272
6	0xbf12dfae	-0.5737256
7	0x3ed4b59a	0.415448
8	0xbf9354f9	-1.1510307
9	0xbf9e5ce0	-1.2372093
10	0xbd8288f2	-0.063737765
11	0x3e659638	0.22420585
12	0x3ed44452	0.41458374
13	0x3f670ef0	0.9025717
14	0xbe059506	-0.13045129
15	0xbf108a77	-0.5646128
16	0xbea21a36	-0.31660622
17	0xbf1bc8f8	-0.6085353
18	0xbf135080	-0.5754471
19	0xbef42263	-0.47682485
20	0xbe88852b	-0.266641
21	0xbed176d2	-0.40910965
22	0x3f30c030	0.69043255
23	0x3f047c94	0.5175259
24	0xbf4a8666	-0.79111326
25	0xbd4cd4ea	-0.05000774
26	0xbf1acb31	-0.60466295
27	0xbf8b4122	-1.0879252
28	0xbf0eb259	-0.55740887
29	0xbd0a3857	-0.033745136
30	0x3f2a8364	0.66606736
31	0x3f7b98be	0.9827994
32	0xbcc1a228	-0.023636892
33	0xbe448a3a	-0.19193354
34	0xbef4b422	-0.4779368
35	0x3ec00cfe	0.37509912
36	0xbec4aa51	-0.3841119
37	0xbe231176	-0.1592463
38	0xbf1ccad7	-0.6124701
39	0xbed49d58	-0.41526294
40	0xbeb9970a	-0.36248046
41	0xbf6140fd	-0.8798979
42	0xbdea77f0	-0.114486575
43	0x3fad5328	1.3541002
44	0x3e4033af	0.18769716
45	0xbf013f22	-0.5048696
46	0xbf6032bd	-0.8757742
47	0x3dfb48eb	0.122697674
48	0xbeff118a	-0.4981807
49	0x3dfff9da	0.12498827
50	0x3e49c5a2	0.19704297
51	0x3e48e513	0.19618635
52	0x3e7fa36a	0.24964681
53	0x3f580b7b	0.8439252
54	0x3e003562	0.12520364
55	0xbe683c96	-0.22679362
56	0xbefc961b	-0.4933327
57	0xbf2a50b5	-0.665294
58	0xbf57db03	-0.8431856
59	0x3f809e11	1.0048238
60	0x3f72fc83	0.9491655
61	0xbec4e28f	-0.384541
62	0x3e2b9a23	0.16758017
63	0xbf5f1cb5	-0.8715318
64	0xbf4184a3	-0.7559301
65	0x3fabe262	1.3428462
66	0xbf461e1b	-0.7738969
67	0x3eef6795	0.46758714
68	0x3df96cda	0.12178965
69	0xbebce03f	-0.36889836
70	0xbe82bf89	-0.25536755
71	0x3e4759c3	0.19467835
72	0xbe309ff1	-0.17248513
73	0xbe5ec01d	-0.21752973
74	0x3f84488e	1.0334642
75	0xbf9a9f6b	-1.20799
76	0xbeb09590	-0.34489107
77	0xbd788012	-0.060669012
78	0xbd565573	-0.052327584
79	0xbe905944	-0.28193104
80	0xbf6d73ce	-0.9275483
81	0x3e9ef29f	0.3104448
82	0x3ef53a83	0.47896203
83	0xbf56083d	-0.8360632
84	0x3f9edd2a	1.2411244
85	0x3e38e8c2	0.1805754
86	0x3f1fde94	0.62449
87	0x3e61c662	0.22048333
88	0x3dbcd98a	0.0922118
89	0xbe987dfc	-0.29783618
90	0x3f5694db	0.83820885
91	0x3eb0880f	0.34478804
92	0x3f613683	0.87973803
93	0x3fabdcf6	1.3426807
94	0x3f4212a6	0.75809705
95	0xbe8b4d13	-0.2720724
96	0x3f17fdd5	0.5937169
97	0x3d57044e	0.05249434
98	0xbe4069aa	-0.18790308
99	0x3efd4530	0.49466848
100	0x3f14d3b2	0.5813552
101	0xbf089a00	-0.53359985
102	0x3f59fa32	0.8514739
103	0xbf74c4d5	-0.9561284
104	0xbdd00682	-0.10157491
105	0x3e93a532	0.28836972
106	0x3fbba5f8	1.4660025
107	0x3ef9941e	0.48745817
108	0x3d9db49b	0.077004634
109	0x3e006436	0.12538227
110	0xbe070f4b	-0.13189428
111	0x3f0048a5	0.50110847
112	0xbecc50e4	-0.39905465
113	0x3f662440	0.89899063
114	0x3dac1fff	0.0840454
115	0xbeb82eb6	-0.35973138
116	0xbec470e8	-0.3836739
117	0x3f49c16a	0.7881075
118	0xbe4d3038	-0.20037925
119	0x3ecd55c0	0.40104485
120	0xbf014405	-0.50494415
121	0xbe679723	-0.22616248
122	0xbe0cd03d	-0.13751312
123	0xbe85044e	-0.25979847
124	0xbdd2f805	-0.10301212
125	0x3f4c8e2e	0.7990445
126	0xbf32ca05	-0.6983951
127	0xbfac7943	-1.3474506
128	0xbef362f0	-0.4753642
129	0xbf23eea8	-0.64036036
130	0x3fb1713f	1.3862685
131	0x3d59794e	0.0530942
132	0x3eee54fa	0.46549207
133	0x3e9ad4a2	0.3024035
134	0x3f2f42ee	0.684615
135	0xbf422a1b	-0.758455
136	0x3e86384e	0.26214832
137	0xbe8ff42e	-0.28115982
138	0x3f66bb50	0.90129566
139	0x3f812260	1.0088615
140	0x3f889aba	1.0672219
141	0xbeeb34b3	-0.45938644
142	0xbfabe624	-1.3429608
143	0xbf56cc6a	-0.8390566
144	0xbf36bbae	-0.71380126
145	0xbde84a88	-0.11342341
146	0x3f0b48be	0.5440787
147	0x3f9a93c2	1.2076342
148	0x3ef76d5e	0.48325628
149	0x3e2733f6	0.16328415
150	0x3f6ed253	0.9328968
151	0x3f69b36a	0.9128939
152	0xbf11d59a	-0.56966555
153	0x3dfaa828	0.122391045
154	0x3d46f6d1	0.048575226
155	0xbf6d8493	-0.9278042
156	0x3edb0abd	0.4278163
157	0xbed91b53	-0.4240366
158	0xbedcc646	-0.4312002
159	0x3d0d7ff6	0.03454586
160	0x3ea5a6a5	0.32353702
161	0x3f9cc15a	1.2246506
162	0x3f2288a6	0.6348976
163	0xbcce6588	-0.025194898
164	0xbe079bce	-0.13243029
165	0x3e99a3c3	0.30007753
166	0x3d3b7fda	0.045776226
167	0x3f53e365	0.8276885
168	0x3f2cf830	0.67566204
169	0x3f6b2880	0.91858673
170	0x3ea930a8	0.33044934
171	0x3e60caf0	0.21952415
172	0x3d0fe256	0.03512796
173	0xbd8d4d0e	-0.06899463
174	0x3f47c1d3	0.7803013
175	0xbf092425	-0.5357078
176	0x3d599a32	0.053125568
177	0xbef827e0	-0.48467922
178	0x3fd25e86	1.6435096
179	0x3ea3e516	0.32010716
180	0xbd5b112a	-0.053483166
181	0x3f20357f	0.6258163
182	0xbf32540e	-0.6965951
183	0xbf50e47a	-0.8159863
184	0x3d974d25	0.07387761
185	0xbf79c43b	-0.9756505
186	0xbf4d3d96	-0.801721
187	0xbd5bb48e	-0.053638987
188	0x3fac50ee	1.3462198
189	0xbdf86a7a	-0.12129684
190	0xbf4654d5	-0.77473193
191	0xbbf0e7aa	-0.0073518353
192	0xbd0ed755	-0.034873325
193	0x3f12c57a	0.57332575
194	0x3ee6763a	0.45012075
195	0x3f25f9c1	0.6483422
196	0xbe925283	-0.28578576
197	0x3f81b1ae	1.0132349
198	0xbf0007fe	-0.50012195
199	0x3f65cf22	0.89769185
200	0xbd8da078	-0.069153726
201	0x3d836601	0.0641594
202	0x3f221bb2	0.6332351
203	0x3f1570c3	0.58375186
204	0xbf82ba07	-1.0213021
205	0xbe88cd90	-0.26719332
206	0x3f818887	1.011979
207	0xbf0bfc1e	-0.54681575
208	0x3e849ed8	0.25902438
209	0x3f042ca2	0.51630604
210	0xbfd5e17b	-1.6709436
211	0x3ee1b5d5	0.4408404
212	0xbf9e3a9d	-1.2361637
213	0xbe4c166d	-0.1993043
214	0x3de4954e	0.1116129
215	0x3f0773cb	0.5291106
216	0x3eaed19e	0.341443
217	0xbf3e7fa7	-0.7441353
218	0xbd7b7650	-0.06139213
219	0x3f0ceda8	0.55050135
220	0x3db8a0cc	0.090150446
221	0x3d021ba2	0.031764634
222	0x3d96cac9	0.07362897
223	0xbddd5265	-0.10806731
224	0xbe71e48b	-0.23622338
225	0xbf9d2896	-1.2278011
226	0x3e981856	0.29706067
227	0xbeb58b14	-0.3545767
228	0x3ccd3615	0.025050202
229	0xbebd11ad	-0.36927548
230	0xbe6477fd	-0.22311397
231	0x3f84eca4	1.0384717
232	0x3f4333de	0.7625102
233	0xbf358337	-0.7090334
234	0x3f4409de	0.76577556
235	0xbf87df2d	-1.0614983
236	0xbe04a5a6	-0.12953815
237	0x3f378fa8	0.7170358
238	0xbf75e02b	-0.9604518
239	0xbe422d23	-0.18962531
240	0x3f2eaba6	0.68230665
241	0x3fa8ff76	1.320296
242	0x3e56e5cd	0.209861
243	0x3e15f4af	0.1464412
244	0x3d444a62	0.0479225
245	0xbf24b2bb	-0.6433522
246	0xbe444601	-0.1916733
247	0x3eed9942	0.4640599
248	0xbe997f63	-0.2998
249	0xbe4bf3dd	-0.19917245
250	0x3f93865f	1.1525382
251	0x3e963ac8	0.29341722
252	0x3ee8ce1e	0.45469755
253	0x3ef62ce5	0.48081127
254	0x3fd7fe43	1.687447
255	0x3f2c6998	0.67348623

decoders.0.0.bias f4 [32]
0	0xbc2b6df2	-0.010463225
1	0x3e9b894b	0.30378184
2	0x3dcafcd0	0.099115014
3	0x3e85c9d1	0.26130536
4	0x3d90e35e	0.07074617
5	0xbe1fc310	-0.15601754
6	0xbdac0f29	-0.08401329
7	0x3e553f1e	0.20824859
8	0x3ed4363e	0.41447634
9	0x3d2d38ea	0.042290606
10	0x3f11235f	0.56694597
11	0xbdf73422	-0.120704904
12	0xbec30560	-0.38090038
13	0x3eaa2e7a	0.33238584
14	0x3b65e7d2	0.0035080803
15	0x3e05e9d6	0.13077483
16	0xbd41cd06	-0.047314666
17	0x3eb4157d	0.35172644
18	0x3e81ce08	0.25352502
19	0x3d4274d2	0.04747469
20	0x3eb8cc77	0.36093494
21	0x3ec9d1e5	0.3941795
22	0x3ef0aca2	0.47006708
23	0xbe96309c	-0.2933396
24	0xbe9b6a0a	-0.3035434
25	0xbc103496	-0.0088016
26	0x3d9ec9ad	0.0775331
27	0x3e56aad2	0.209636
28	0x3e479b47	0.19492827
29	0xbe274ef4	-0.16338712
30	0x3ed35b20	0.4128046
31	0x3e07d7d6	0.13265929

decoders.0.1.weight f4 [32]
0	0x3f869810	1.0515156
1	0x3f2bcd3a	0.67110026
2	0x3f5c5a03	0.86074847
3	0x3f47513a	0.77858317
4	0x3f961ba3	1.1727184
5	0x3f9c540e	1.2213151
6	0x3fe5f602	1.7965701
7	0x3f78af22	0.9714223
8	0x3f981c90	1.1883717
9	0x3fa5675b	1.2922167
10	0x3f852b76	1.0403888
11	0x3fbc9af8	1.4734793
12	0x3fdb95c3	1.7155079
13	0x3fb83bf6	1.4393299
14	0x3fd8ad68	1.6927919
15	0x3f7905c8	0.97274446
16	0x40237264	2.5538568
17	0x3fd985db	1.6993974
18	0x3fb5c8f0	1.4201946
19	0x3fb062f5	1.3780199
20	0x3f8354af	1.0260218
21	0x3faf3ce0	1.3690453
22	0x3f23f217	0.64041275
23	0x3fbd0105	1.4765936
24	0x3fcde158	1.6084394
25	0x3fd7aae2	1.6849024
26	0x3f84d051	1.0376073
27	0x3f769b10	0.96330357
28	0x3fa49a50	1.2859592
29	0x40039d2c	2.056468
30	0x3f702890	0.93811893
31	0x3fb71a72	1.4304945

decoders.0.1.bias f4 [32]
0	0xbe9c3972	-0.30512577
1	0xbe72888d	-0.23684902
2	0xbe3eb3bb	-0.18623249
3	0xbf066800	-0.5250244
4	0xbe596f4a	-0.2123386
5	0xbe20c38a	-0.15699592
6	0xbed591fa	-0.41712934
7	0xbf0e8edd	-0.5568674
8	0xbdc51a0b	-0.09624108
9	0xbedaf702	-0.42766577
10	0x3e17384f	0.14767574
11	0xbefbea7d	-0.49202338
12	0xbef1baad	-0.47212735
13	0xbf6826e8	-0.90684366
14	0x3e8983ab	0.26858267
15	0xbf044f6a	-0.51683676
16	0xbe6f3c75	-0.23362906
17	0xbee7665b	-0.4519528
18	0xbe81c36e	-0.25344414
19	0x3ddb2586	0.107005164
20	0xbdb4098c	-0.087908834
21	0x3eaa18a3	0.3322192
22	0xbe9dba0e	-0.3080601
23	0xbe7f0f08	-0.24908078
24	0xbe7557ad	-0.23959227
25	0xbdff6c33	-0.12471809
26	0x3cb866dd	0.022509987
27	0xbe86fde0	-0.26365566
28	0xbd3f941e	-0.046772115
29	0xbde0e44e	-0.10981046
30	0xbf270938	-0.6524844
31	0x3d684dbe	0.056714766

decoders.0.3.weight f4 [32, 32]
0	0x3f994b40	1.197609
1	0xbeb620a6	-0.35571784
2	0xbe4be427	-0.19911252
3	0xbeaa790e	-0.33295482
4	0xbf9945fb	-1.1974481
5	0xbe177a7a	-0.14792815
6	0xbfe89c86	-1.8172767
7	0x3f3added	0.7299488
8	0x3e83acfa	0.25717908
9	0xbf2ad6d6	-0.66734064
10	0x3f25322f	0.645297
11	0x3f7e34c6	0.99299276
12	0x3f8df58e	1.1090562
13	0x3f89dc22	1.0770304
14	0x3de3f858	0.11131352
15	0x3e21e848	0.15811265
16	0xbf25e622	-0.6480428
17	0xbefce18b	-0.49390826
18	0xbf16db67	-0.5892853
19	0xbee813da	-0.45327646
20	0x3f39eddf	0.7262859
21	0xbe387f66	-0.18017349
22	0x3e9a58ca	0.30145866
23	0xbd1c8f49	-0.038222585
24	0x3d61e14a	0.055146493
25	0xbf8d036d	-1.101667
26	0xbe5e21c3	-0.21692567
27	0x3f337a06	0.7010807
28	0x3ecfa8e3	0.40558538
29	0xbea09ee0	-0.31371212
30	0xbe5a3da5	-0.21312578
31	0x3c0226c3	0.007943812
32	0xbda6c767	-0.08143502
33	0x3dee6a6b	0.11641391
34	0x3db72a16	0.08943574
35	0xbe8f5ff2	-0.28002888
36	0x3e0024f3	0.12514095
37	0xbe1851dd	-0.14874978
38	0xbf0b0550	-0.5430498
39	0xbe895582	-0.2682305
40	0x3ed554ed	0.41666356
41	0xbe6a72fe	-0.22895429
42	0x3f314d68	0.6925874
43	0x3fa731f4	1.306212
44	0x3df74550	0.12073767
45	0xbf32d736	-0.69859636
46	0x3cb280ab	0.02178987
47	0xbf91d978	-1.1394491
48	0x3f8feb60	1.1243706
49	0xbfa60c71	-1.2972547
50	0x3ede68ca	0.43439323
51	0x3f28ffd0	0.6601534
52	0x3f257f4d	0.6464737
53	0x3e7bbf5d	0.24584718
54	0x3e839430	0.25698996
55	0xbeff3145	-0.49842277
56	0xbf4f439b	-0.8096253
57	0x3f019f4e	0.50633705
58	0x3e5e2935	0.21695407
59	0xbf56dd3a	-0.83931315
60	0xbf8146fe	-1.009979
61	0x3ecf6973	0.4051014
62	0x3f5d1b1d	0.86369497
63	0xbf1b9c3d	-0.60785276
64	0xbf736488	-0.95075274
65	0x3e866dfb	0.26255783
66	0x3dd974d6	0.10617988
67	0xbef38d23	-0.47568616
68	0x3e9626a2	0.2932635
69	0x3f7fcb86	0.9991993
70	0x3eefc33a	0.46828634
71	0xbf23a3fc	-0.63922095
72	0xbee93bb5	-0.45553365
73	0x3f45d97d	0.77284986
74	0xbf1a772b	-0.60338086
75	0xbf6d5ab6	-0.9271654
76	0xbdcb8364	-0.0993717
77	0x3f01ce19	0.50705105
78	0x3d98bf72	0.0745839
79	0x3fa1ed88	1.2650614
80	0x3eac7102	0.33679968
81	0xbe517e0b	-0.20458238
82	0xbf8ba1bd	-1.0908734
83	0xbe96b20f	-0.29432723
84	0x3e1d19ab	0.15341823
85	0xbe56bd25	-0.2097059
86	0xbe94d086	-0.2906534
87	0x3e9d706b	0.3074983
88	0x3f58006b	0.8437564
89	0xbe31cab0	-0.17362475
90	0xbf6c13c3	-0.92217654
91	0xbe782056	-0.24231085
92	0x3e7ac8c0	0.24490643
93	0xbe65d1c3	-0.22443299
94	0x3f92c062	1.146496
95	0xbe414158	-0.18872583
96	0x3ea02b43	0.31283006
97	0xbf56778b	-0.8377616
98	0xbef5e122	-0.48023325
99	0x3e8855df	0.26628014
100	0x3f87c3be	1.0606611
101	0x3cc636b7	0.024196012
102	0xbf18888a	-0.5958334
103	0x3f122986	0.5709461
104	0x3f15e3e3	0.5855085
105	0x3f3f60ba	0.7475697
106	0x3ed3f94e	0.41401142
107	0x3fb1103e	1.3833082
108	0xbd95d80a	-0.07316597
109	0x3f638658	0.8887687
110	0x3f52ee45	0.8239482
111	0xbd15c2cb	-0.036562722
112	0x3d25cbd0	0.040477574
113	0xbf1b1126	-0.6057304
114	0x3f4a135c	0.7893579
115	0x3f6c9cae	0.92426574
116	0x3d9feb39	0.07808537
117	0xbeaa3d03	-0.33249673
118	0xbf8c6525	-1.0968367
119	0x3f973330	1.1812496
120	0xbfb1bd5b	-1.3885912
121	0xbeade755	-0.33965555
122	0xbf0e6f00	-0.5563812
123	0xbeeab7d3	-0.45843372
124	0x3ed81232	0.42201382
125	0x3e617a20	0.22019243
126	0x3f779ebe	0.96726596
127	0x3d5b7398	0.053577036
128	0x3d4db26e	0.050218992
129	0x3f06f903	0.5272371
130	0xbe65d406	-0.22444162
131	0x3ed64023	0.41845807
132	0x3e559ffb	0.20861809
133	0x3e9b10d2	0.3028627
134	0xbf2fb62b	-0.6863734
135	0xbf3b8aa5	-0.7325843
136	0x3e601370	0.21882415
137	0x3f4c1d4f	0.7973222
138	0x3e3982f2	0.18116358
139	0xbf204679	-0.6260753
140	0xbecdff7e	-0.40233988
141	0xbda5d200	-0.08096695
142	0x3ea6607d	0.3249549
143	0xbe2d97b5	-0.16952403
144	0x3f6cbaed	0.92472726
145	0xbf16e6aa	-0.58945715
146	0xbfe50023	-1.7890667
147	0x3ed6cc40	0.41952705
148	0x3e65508a	0.22394004
149	0xbf75ff13	-0.9609234
150	0xbe3bf9a9	-0.18356957
151	0x3d1e940a	0.0387154
152	0x3e4895d6	0.19588408
153	0x3f8c0516	1.0939052
154	0xbf26890a	-0.65052855
155	0x3ef5560b	0.47917208
156	0x3efca71d	0.49346247
157	0xbf99cd60	-1.20158
158	0x3e626eb0	0.22112536
159	0xbf85c7d5	-1.0451609
160	0xbe8a237e	-0.26980203
161	0x3e51e23b	0.20496456
162	0xbe02cc3a	-0.12773219
163	0x3edf0cb5	0.43564382
164	0xbf851abd	-1.0398785
165	0xbf5e272e	-0.86778533
166	0x3e2e5e1a	0.17028084
167	0x3e0ef724	0.13961464
168	0x3f84feeb	1.0390295
169	0x3e9b9b5e	0.30391973
170	0x3f8db0fe	1.1069639
171	0xbf7bb893	-0.9832851
172	0x3f0576ba	0.5213429
173	0xbddf6393	-0.10907664
174	0xbedf8902	-0.43659216
175	0x3eb53a89	0.3539622
176	0xc0148622	-2.3206868
177	0x3f5c62da	0.86088336
178	0x3dd448f6	0.10365479
179	0xbf7b9a2b	-0.98282117
180	0x3f44c4d9	0.76862866
181	0xbdec70b5	-0.11544935
182	0x3f3b6d84	0.7321398
183	0xbe21433d	-0.15748306
184	0xbe502732	-0.20327452
185	0x3e25b926	0.1618391
186	0xbf2b425b	-0.66898125
187	0x3e54018a	0.20703712
188	0xbf2a9038	-0.6662631
189	0xbee49535	-0.44645086
190	0x3f08e5be	0.5347556
191	0x3dc09c0a	0.09404762
192	0x3eaeb1e5	0.34120098
193	0x3d21e0bd	0.039520968
194	0x3ecb7876	0.39740342
195	0x3ea8937f	0.3292503
196	0xbe93e0d0	-0.28882456
197	0xbf30db30	-0.69084454
198	0x3f64e958	0.89418554
199	0xbe46ebb8	-0.19425857
200	0x3f652c23	0.8952047
201	0x3f378c7d	0.71698743
202	0x3d0a3b1a	0.03374777
203	0x3ea5d96e	0.32392448
204	0x3f86bdb9	1.0526649
205	0xbfc1e70c	-1.5148635
206	0xbf560b82	-0.8361131
207	0xbee69dad	-0.45042172
208	0x3eb2e96b	0.3494371
209	0xbec24020	-0.37939548
210	0xbe22cd97	-0.15898739
211	0xbf258eea	-0.64671195
212	0xbf176552	-0.5913898
213	0xbf2d128d	-0.6760643
214	0xbebfb518	-0.3744285
215	0x3f8f236e	1.1182687
216	0xbf44416e	-0.7666234
217	0xbedd1ed3	-0.4318758
218	0xbe3c38ed	-0.1838109
219	0x3e82687a	0.25470334
220	0x3d7080a2	0.058716424
221	0xbf420544	-0.75789285
222	0x3e31ae06	0.17351541
223	0x3f554ac0	0.83317184
224	0xbe8cad6e	-0.27476066
225	0x3e29fc45	0.1660014
226	0x3ce478cd	0.027889634
227	0xbf1519e5	-0.58242637
228	0x3e654e80	0.22393227
229	0x3ea0d338	0.31411147
230	0x3dc23a3b	0.09483763
231	0xbcbc117b	-0.022957554
232	0x3f701252	0.93777955
233	0xbcd84c52	-0.02640358
234	0x3d1dad26	0.038495205
235	0xbf1f4a7a	-0.6222302
236	0xbf267222	-0.650179
237	0x3f283928	0.65712214
238	0xbfba285e	-1.4543569
239	0xbd8549fc	-0.06508252
240	0xbec1d69e	-0.37859052
241	0xbd931633	-0.071819685
242	0x3d7cd940	0.061730623
243	0xbd2336fa	-0.03984735
244	0xbe3849c8	-0.17996895
245	0x3f6cf532	0.9256164
246	0x3e36984f	0.17831539
247	0x3e31e0c9	0.17370905
248	0xbf198125	-0.59962684
249	0xbdd2b335	-0.10288087
250	0x3e8a8aa7	0.27058908
251	0xbef02c5d	-0.46908846
252	0x3dce1b58	0.10063809
253	0x3d7e6b63	0.06211413
254	0x3f1e6c62	0.6188413
255	0xbd9e4087	-0.07727151

decoders.0.3.bias f4 [32]
0	0x3d1fea22	0.039041646
1	0x3e13839a	0.14405671
2	0x3e6aecee	0.22941944
3	0x3e376806	0.17910776
4	0x3ecae17a	0.3962515
5	0x3e0a2036	0.1348885
6	0x3e3952e2	0.18098024
7	0x3c2b0d73	0.010440218
8	0x3e096f40	0.13421345
9	0x3d24ba93	0.040216994
10	0x3e3426fc	0.17592996
11	0x3e24bc7a	0.16087523
12	0x3dbcb1e3	0.09213617
13	0xbe00975d	-0.1255774
14	0x3e1da373	0.15394382
15	0x3d83b38a	0.06430729
16	0x3e38e8d0	0.18057561
17	0x3e871e1b	0.26390156
18	0x3d2e067a	0.042486645
19	0x3c87003e	0.016479608
20	0x3da7cb3f	0.08193063
21	0xbb8ef1fb	-0.0043623424
22	0x3e5c4af2	0.21512964
23	0x3e3e2f72	0.18572786
24	0x3e2dab42	0.16959861
25	0x3ea042a8	0.31300855
26	0xbebb7a35	-0.36616674
27	0xbdf5093a	-0.119646505
28	0x3dbfa2ab	0.09357198
29	0x3eae86a2	0.34087092
30	0x3e953543	0.29142198
31	0xbcdcec93	-0.026968276

decoders.0.4.weight f4 [32]
0	0x3f918a0b	1.1370252
1	0x3f3c7bd4	0.73626447
2	0x3fcd5c95	1.6043879
3	0x3f3406f9	0.7032314
4	0x3fbb6975	1.4641558
5	0x3fbade46	1.4599082
6	0x3fa685f6	1.3009632
7	0x3f81f7f3	1.0153793
8	0x3fd6e716	1.6789272
9	0x3fa6d9dc	1.3035235
10	0x3fd90f96	1.6957881
11	0x3fbf3d24	1.4940534
12	0x3fd91e53	1.6962379
13	0x3f5e9c30	0.86957073
14	0x3fb99b4e	1.450052
15	0x3f98df79	1.1943198
16	0x3fb62fca	1.4233334
17	0x3fc50254	1.5391335
18	0x3fabd6c4	1.3424916
19	0x3fa3cac0	1.2796249
20	0x3f38664e	0.72031105
21	0x3fc7a666	1.5597656
22	0x3fd15d06	1.6356514
23	0x3f87ae06	1.0599983
24	0x3fad3af0	1.3533611
25	0x3fce0496	1.609515
26	0x3faa92de	1.332607
27	0x3f963b22	1.1736796
28	0x3fc55692	1.5417044
29	0x3fa7ecc5	1.3119131
30	0x3f9a182b	1.2038625
31	0x3fc53268	1.5406008

decoders.0.4.bias f4 [32]
0	0xbe872242	-0.26393324
1	0xbecb55fb	-0.39714035
2	0xbecfc476	-0.40579575
3	0xbf606e8d	-0.8766869
4	0x3ca5d906	0.020245086
5	0xbec7db79	-0.39034632
6	0xbef8a58b	-0.485638
7	0x3c8b8c80	0.017034769
8	0x3c7491d6	0.014927348
9	0xbe8ed726	-0.2789852
10	0xbebfcef9	-0.37462595
11	0xbd8bfcf2	-0.06835355
12	0xbf1d2a5e	-0.6139277
13	0xbf04d5db	-0.5188882
14	0xbee50cb5	-0.44736257
15	0x3e4680d8	0.19385087
16	0xbdbbd2a7	-0.09171038
17	0x3e3aa130	0.1822555
18	0xbcda291e	-0.026630934
19	0xbe882fd6	-0.26598996
20	0xbd51cb8b	-0.051219504
21	0x3c14434a	0.009049246
22	0xbea6c6b0	-0.32573462
23	0xbe05ba56	-0.13059363
24	0xbecd9ad3	-0.40157184
25	0xbce44eb8	-0.027869567
26	0xbecffd02	-0.40622717
27	0x3e36cd0e	0.1785166
28	0xbdb633c2	-0.08896591
29	0xbebaed6a	-0.36509258
30	0xbddbdadb	-0.10735103
31	0xbeb0b804	-0.34515393
